…
2020-03-23 09:14:53,940 | INFO | Number of thread : 0
2020-03-23 09:14:53,940 | INFO | Number of dataloader worker for Joint DeepSVDD : 8

2020-03-23 09:14:56,315 | INFO | Network : AE_SVDD_Hybrid
2020-03-23 09:14:56,315 | INFO | Autoencoder pretrained on ImageNet : False
2020-03-23 09:14:56,315 | INFO | DeepSAD eta : 0.0
2020-03-23 09:14:56,586 | INFO | Network architecture: 
----------------------------------------------------------------
        Layer (type)               Output Shape         Param #
================================================================
            Conv2d-1         [16, 64, 256, 256]           9,408
       BatchNorm2d-2         [16, 64, 256, 256]               0
              ReLU-3         [16, 64, 256, 256]               0
         MaxPool2d-4         [16, 64, 128, 128]               0
            Conv2d-5         [16, 64, 128, 128]          36,864
       BatchNorm2d-6         [16, 64, 128, 128]               0
              ReLU-7         [16, 64, 128, 128]               0
            Conv2d-8         [16, 64, 128, 128]          36,864
       BatchNorm2d-9         [16, 64, 128, 128]               0
             ReLU-10         [16, 64, 128, 128]               0
     DownResBlock-11         [16, 64, 128, 128]               0
           Conv2d-12         [16, 64, 128, 128]          36,864
      BatchNorm2d-13         [16, 64, 128, 128]               0
             ReLU-14         [16, 64, 128, 128]               0
           Conv2d-15         [16, 64, 128, 128]          36,864
      BatchNorm2d-16         [16, 64, 128, 128]               0
             ReLU-17         [16, 64, 128, 128]               0
     DownResBlock-18         [16, 64, 128, 128]               0
           Conv2d-19          [16, 128, 64, 64]           8,192
      BatchNorm2d-20          [16, 128, 64, 64]               0
           Conv2d-21          [16, 128, 64, 64]          73,728
      BatchNorm2d-22          [16, 128, 64, 64]               0
             ReLU-23          [16, 128, 64, 64]               0
           Conv2d-24          [16, 128, 64, 64]         147,456
      BatchNorm2d-25          [16, 128, 64, 64]               0
             ReLU-26          [16, 128, 64, 64]               0
     DownResBlock-27          [16, 128, 64, 64]               0
           Conv2d-28          [16, 128, 64, 64]         147,456
      BatchNorm2d-29          [16, 128, 64, 64]               0
             ReLU-30          [16, 128, 64, 64]               0
           Conv2d-31          [16, 128, 64, 64]         147,456
      BatchNorm2d-32          [16, 128, 64, 64]               0
             ReLU-33          [16, 128, 64, 64]               0
     DownResBlock-34          [16, 128, 64, 64]               0
           Conv2d-35          [16, 256, 32, 32]          32,768
      BatchNorm2d-36          [16, 256, 32, 32]               0
           Conv2d-37          [16, 256, 32, 32]         294,912
      BatchNorm2d-38          [16, 256, 32, 32]               0
             ReLU-39          [16, 256, 32, 32]               0
           Conv2d-40          [16, 256, 32, 32]         589,824
      BatchNorm2d-41          [16, 256, 32, 32]               0
             ReLU-42          [16, 256, 32, 32]               0
     DownResBlock-43          [16, 256, 32, 32]               0
           Conv2d-44          [16, 256, 32, 32]         589,824
      BatchNorm2d-45          [16, 256, 32, 32]               0
             ReLU-46          [16, 256, 32, 32]               0
           Conv2d-47          [16, 256, 32, 32]         589,824
      BatchNorm2d-48          [16, 256, 32, 32]               0
             ReLU-49          [16, 256, 32, 32]               0
     DownResBlock-50          [16, 256, 32, 32]               0
           Conv2d-51          [16, 512, 16, 16]         131,072
      BatchNorm2d-52          [16, 512, 16, 16]               0
           Conv2d-53          [16, 512, 16, 16]       1,179,648
      BatchNorm2d-54          [16, 512, 16, 16]               0
             ReLU-55          [16, 512, 16, 16]               0
           Conv2d-56          [16, 512, 16, 16]       2,359,296
      BatchNorm2d-57          [16, 512, 16, 16]               0
             ReLU-58          [16, 512, 16, 16]               0
     DownResBlock-59          [16, 512, 16, 16]               0
           Conv2d-60          [16, 512, 16, 16]       2,359,296
      BatchNorm2d-61          [16, 512, 16, 16]               0
             ReLU-62          [16, 512, 16, 16]               0
           Conv2d-63          [16, 512, 16, 16]       2,359,296
      BatchNorm2d-64          [16, 512, 16, 16]               0
             ReLU-65          [16, 512, 16, 16]               0
     DownResBlock-66          [16, 512, 16, 16]               0
 ResNet18_Encoder-67          [16, 512, 16, 16]               0
           Conv2d-68          [16, 512, 16, 16]       2,359,296
      BatchNorm2d-69          [16, 512, 16, 16]               0
             ReLU-70          [16, 512, 16, 16]               0
           Conv2d-71          [16, 512, 16, 16]       2,359,296
      BatchNorm2d-72          [16, 512, 16, 16]               0
             ReLU-73          [16, 512, 16, 16]               0
       UpResBlock-74          [16, 512, 16, 16]               0
           Conv2d-75          [16, 512, 16, 16]       2,359,296
      BatchNorm2d-76          [16, 512, 16, 16]               0
             ReLU-77          [16, 512, 16, 16]               0
         Upsample-78          [16, 512, 32, 32]               0
           Conv2d-79          [16, 256, 32, 32]         131,072
      BatchNorm2d-80          [16, 256, 32, 32]               0
         Upsample-81          [16, 512, 32, 32]               0
           Conv2d-82          [16, 256, 32, 32]         131,072
      BatchNorm2d-83          [16, 256, 32, 32]               0
             ReLU-84          [16, 256, 32, 32]               0
       UpResBlock-85          [16, 256, 32, 32]               0
           Conv2d-86          [16, 256, 32, 32]         589,824
      BatchNorm2d-87          [16, 256, 32, 32]               0
             ReLU-88          [16, 256, 32, 32]               0
           Conv2d-89          [16, 256, 32, 32]         589,824
      BatchNorm2d-90          [16, 256, 32, 32]               0
             ReLU-91          [16, 256, 32, 32]               0
       UpResBlock-92          [16, 256, 32, 32]               0
           Conv2d-93          [16, 256, 32, 32]         589,824
      BatchNorm2d-94          [16, 256, 32, 32]               0
             ReLU-95          [16, 256, 32, 32]               0
         Upsample-96          [16, 256, 64, 64]               0
           Conv2d-97          [16, 128, 64, 64]          32,768
      BatchNorm2d-98          [16, 128, 64, 64]               0
         Upsample-99          [16, 256, 64, 64]               0
          Conv2d-100          [16, 128, 64, 64]          32,768
     BatchNorm2d-101          [16, 128, 64, 64]               0
            ReLU-102          [16, 128, 64, 64]               0
      UpResBlock-103          [16, 128, 64, 64]               0
          Conv2d-104          [16, 128, 64, 64]         147,456
     BatchNorm2d-105          [16, 128, 64, 64]               0
            ReLU-106          [16, 128, 64, 64]               0
          Conv2d-107          [16, 128, 64, 64]         147,456
     BatchNorm2d-108          [16, 128, 64, 64]               0
            ReLU-109          [16, 128, 64, 64]               0
      UpResBlock-110          [16, 128, 64, 64]               0
          Conv2d-111          [16, 128, 64, 64]         147,456
     BatchNorm2d-112          [16, 128, 64, 64]               0
            ReLU-113          [16, 128, 64, 64]               0
        Upsample-114        [16, 128, 128, 128]               0
          Conv2d-115         [16, 64, 128, 128]           8,192
     BatchNorm2d-116         [16, 64, 128, 128]               0
        Upsample-117        [16, 128, 128, 128]               0
          Conv2d-118         [16, 64, 128, 128]           8,192
     BatchNorm2d-119         [16, 64, 128, 128]               0
            ReLU-120         [16, 64, 128, 128]               0
      UpResBlock-121         [16, 64, 128, 128]               0
          Conv2d-122         [16, 64, 128, 128]          36,864
     BatchNorm2d-123         [16, 64, 128, 128]               0
            ReLU-124         [16, 64, 128, 128]               0
          Conv2d-125         [16, 64, 128, 128]          36,864
     BatchNorm2d-126         [16, 64, 128, 128]               0
            ReLU-127         [16, 64, 128, 128]               0
      UpResBlock-128         [16, 64, 128, 128]               0
          Conv2d-129         [16, 64, 128, 128]          36,864
     BatchNorm2d-130         [16, 64, 128, 128]               0
            ReLU-131         [16, 64, 128, 128]               0
        Upsample-132         [16, 64, 256, 256]               0
          Conv2d-133         [16, 64, 256, 256]           4,096
     BatchNorm2d-134         [16, 64, 256, 256]               0
        Upsample-135         [16, 64, 256, 256]               0
          Conv2d-136         [16, 64, 256, 256]           4,096
     BatchNorm2d-137         [16, 64, 256, 256]               0
            ReLU-138         [16, 64, 256, 256]               0
      UpResBlock-139         [16, 64, 256, 256]               0
        Upsample-140         [16, 64, 512, 512]               0
          Conv2d-141          [16, 1, 512, 512]              64
            Tanh-142          [16, 1, 512, 512]               0
ResNet18_Decoder-143          [16, 1, 512, 512]               0
       AvgPool2d-144            [16, 512, 7, 7]               0
          Conv2d-145            [16, 256, 5, 5]       1,179,648
     BatchNorm2d-146            [16, 256, 5, 5]               0
            ReLU-147            [16, 256, 5, 5]               0
       MaxPool2d-148            [16, 256, 2, 2]               0
          Conv2d-149            [16, 128, 2, 2]          32,768
     BatchNorm2d-150            [16, 128, 2, 2]               0
================================================================
Total params: 22,131,968
Trainable params: 22,131,968
Non-trainable params: 0
----------------------------------------------------------------
Input size (MB): 16.00
Forward/backward pass size (MB): 16149.66
Params size (MB): 84.43
Estimated Total Size (MB): 16250.08
----------------------------------------------------------------


…
