…
| test  | Normal         | 2763       | 26.29%       |
| test  | Abnormal       | 7748       | 73.71%       |
| test  | Normal known   | 506        | 4.81%        |
| test  | Abnormal known | 498        | 4.74%        |
| test  | Unknown        | 9507       | 90.45%       |
+-------+----------------+------------+--------------+
2020-09-22 12:13:15,233 | INFO | SimCLR net architecture: 
----------------------------------------------------------------
        Layer (type)               Output Shape         Param #
================================================================
            Conv2d-1         [24, 64, 256, 256]           9,408
       BatchNorm2d-2         [24, 64, 256, 256]               0
              ReLU-3         [24, 64, 256, 256]               0
         MaxPool2d-4         [24, 64, 128, 128]               0
            Conv2d-5         [24, 64, 128, 128]          36,864
       BatchNorm2d-6         [24, 64, 128, 128]               0
              ReLU-7         [24, 64, 128, 128]               0
            Conv2d-8         [24, 64, 128, 128]          36,864
       BatchNorm2d-9         [24, 64, 128, 128]               0
             ReLU-10         [24, 64, 128, 128]               0
     DownResBlock-11         [24, 64, 128, 128]               0
           Conv2d-12         [24, 64, 128, 128]          36,864
      BatchNorm2d-13         [24, 64, 128, 128]               0
             ReLU-14         [24, 64, 128, 128]               0
           Conv2d-15         [24, 64, 128, 128]          36,864
      BatchNorm2d-16         [24, 64, 128, 128]               0
             ReLU-17         [24, 64, 128, 128]               0
     DownResBlock-18         [24, 64, 128, 128]               0
           Conv2d-19          [24, 128, 64, 64]           8,192
      BatchNorm2d-20          [24, 128, 64, 64]               0
           Conv2d-21          [24, 128, 64, 64]          73,728
      BatchNorm2d-22          [24, 128, 64, 64]               0
             ReLU-23          [24, 128, 64, 64]               0
           Conv2d-24          [24, 128, 64, 64]         147,456
      BatchNorm2d-25          [24, 128, 64, 64]               0
             ReLU-26          [24, 128, 64, 64]               0
     DownResBlock-27          [24, 128, 64, 64]               0
           Conv2d-28          [24, 128, 64, 64]         147,456
      BatchNorm2d-29          [24, 128, 64, 64]               0
             ReLU-30          [24, 128, 64, 64]               0
           Conv2d-31          [24, 128, 64, 64]         147,456
      BatchNorm2d-32          [24, 128, 64, 64]               0
             ReLU-33          [24, 128, 64, 64]               0
     DownResBlock-34          [24, 128, 64, 64]               0
           Conv2d-35          [24, 256, 32, 32]          32,768
      BatchNorm2d-36          [24, 256, 32, 32]               0
           Conv2d-37          [24, 256, 32, 32]         294,912
      BatchNorm2d-38          [24, 256, 32, 32]               0
             ReLU-39          [24, 256, 32, 32]               0
           Conv2d-40          [24, 256, 32, 32]         589,824
      BatchNorm2d-41          [24, 256, 32, 32]               0
             ReLU-42          [24, 256, 32, 32]               0
     DownResBlock-43          [24, 256, 32, 32]               0
           Conv2d-44          [24, 256, 32, 32]         589,824
      BatchNorm2d-45          [24, 256, 32, 32]               0
             ReLU-46          [24, 256, 32, 32]               0
           Conv2d-47          [24, 256, 32, 32]         589,824
      BatchNorm2d-48          [24, 256, 32, 32]               0
             ReLU-49          [24, 256, 32, 32]               0
     DownResBlock-50          [24, 256, 32, 32]               0
           Conv2d-51          [24, 512, 16, 16]         131,072
      BatchNorm2d-52          [24, 512, 16, 16]               0
           Conv2d-53          [24, 512, 16, 16]       1,179,648
      BatchNorm2d-54          [24, 512, 16, 16]               0
             ReLU-55          [24, 512, 16, 16]               0
           Conv2d-56          [24, 512, 16, 16]       2,359,296
      BatchNorm2d-57          [24, 512, 16, 16]               0
             ReLU-58          [24, 512, 16, 16]               0
     DownResBlock-59          [24, 512, 16, 16]               0
           Conv2d-60          [24, 512, 16, 16]       2,359,296
      BatchNorm2d-61          [24, 512, 16, 16]               0
             ReLU-62          [24, 512, 16, 16]               0
           Conv2d-63          [24, 512, 16, 16]       2,359,296
      BatchNorm2d-64          [24, 512, 16, 16]               0
             ReLU-65          [24, 512, 16, 16]               0
     DownResBlock-66          [24, 512, 16, 16]               0
AdaptiveAvgPool2d-67            [24, 512, 1, 1]               0
 ResNet18_Encoder-68                  [24, 512]               0
           Linear-69                  [24, 256]         131,328
             ReLU-70                  [24, 256]               0
           Linear-71                  [24, 128]          32,896
          MLPHead-72                  [24, 128]               0
================================================================
Total params: 11,331,136
Trainable params: 11,331,136
Non-trainable params: 0
----------------------------------------------------------------
Input size (MB): 24.00
Forward/backward pass size (MB): 7872.33
Params size (MB): 43.22
Estimated Total Size (MB): 7939.55
----------------------------------------------------------------


2020-09-22 12:13:15,249 | INFO | DMSAD net architecture: 
----------------------------------------------------------------
        Layer (type)               Output Shape         Param #
================================================================
            Conv2d-1         [16, 64, 256, 256]           9,408
       BatchNorm2d-2         [16, 64, 256, 256]               0
              ReLU-3         [16, 64, 256, 256]               0
         MaxPool2d-4         [16, 64, 128, 128]               0
            Conv2d-5         [16, 64, 128, 128]          36,864
       BatchNorm2d-6         [16, 64, 128, 128]               0
              ReLU-7         [16, 64, 128, 128]               0
            Conv2d-8         [16, 64, 128, 128]          36,864
       BatchNorm2d-9         [16, 64, 128, 128]               0
             ReLU-10         [16, 64, 128, 128]               0
     DownResBlock-11         [16, 64, 128, 128]               0
           Conv2d-12         [16, 64, 128, 128]          36,864
      BatchNorm2d-13         [16, 64, 128, 128]               0
             ReLU-14         [16, 64, 128, 128]               0
           Conv2d-15         [16, 64, 128, 128]          36,864
      BatchNorm2d-16         [16, 64, 128, 128]               0
             ReLU-17         [16, 64, 128, 128]               0
     DownResBlock-18         [16, 64, 128, 128]               0
           Conv2d-19          [16, 128, 64, 64]           8,192
      BatchNorm2d-20          [16, 128, 64, 64]               0
           Conv2d-21          [16, 128, 64, 64]          73,728
      BatchNorm2d-22          [16, 128, 64, 64]               0
             ReLU-23          [16, 128, 64, 64]               0
           Conv2d-24          [16, 128, 64, 64]         147,456
      BatchNorm2d-25          [16, 128, 64, 64]               0
             ReLU-26          [16, 128, 64, 64]               0
     DownResBlock-27          [16, 128, 64, 64]               0
           Conv2d-28          [16, 128, 64, 64]         147,456
      BatchNorm2d-29          [16, 128, 64, 64]               0
             ReLU-30          [16, 128, 64, 64]               0
           Conv2d-31          [16, 128, 64, 64]         147,456
      BatchNorm2d-32          [16, 128, 64, 64]               0
             ReLU-33          [16, 128, 64, 64]               0
     DownResBlock-34          [16, 128, 64, 64]               0
           Conv2d-35          [16, 256, 32, 32]          32,768
      BatchNorm2d-36          [16, 256, 32, 32]               0
           Conv2d-37          [16, 256, 32, 32]         294,912
      BatchNorm2d-38          [16, 256, 32, 32]               0
             ReLU-39          [16, 256, 32, 32]               0
           Conv2d-40          [16, 256, 32, 32]         589,824
      BatchNorm2d-41          [16, 256, 32, 32]               0
             ReLU-42          [16, 256, 32, 32]               0
     DownResBlock-43          [16, 256, 32, 32]               0
           Conv2d-44          [16, 256, 32, 32]         589,824
      BatchNorm2d-45          [16, 256, 32, 32]               0
             ReLU-46          [16, 256, 32, 32]               0
           Conv2d-47          [16, 256, 32, 32]         589,824
      BatchNorm2d-48          [16, 256, 32, 32]               0
             ReLU-49          [16, 256, 32, 32]               0
     DownResBlock-50          [16, 256, 32, 32]               0
           Conv2d-51          [16, 512, 16, 16]         131,072
      BatchNorm2d-52          [16, 512, 16, 16]               0
           Conv2d-53          [16, 512, 16, 16]       1,179,648
      BatchNorm2d-54          [16, 512, 16, 16]               0
             ReLU-55          [16, 512, 16, 16]               0
           Conv2d-56          [16, 512, 16, 16]       2,359,296
      BatchNorm2d-57          [16, 512, 16, 16]               0
             ReLU-58          [16, 512, 16, 16]               0
     DownResBlock-59          [16, 512, 16, 16]               0
           Conv2d-60          [16, 512, 16, 16]       2,359,296
      BatchNorm2d-61          [16, 512, 16, 16]               0
             ReLU-62          [16, 512, 16, 16]               0
           Conv2d-63          [16, 512, 16, 16]       2,359,296
      BatchNorm2d-64          [16, 512, 16, 16]               0
             ReLU-65          [16, 512, 16, 16]               0
     DownResBlock-66          [16, 512, 16, 16]               0
AdaptiveAvgPool2d-67            [16, 512, 1, 1]               0
 ResNet18_Encoder-68                  [16, 512]               0
           Linear-69                  [16, 256]         131,328
             ReLU-70                  [16, 256]               0
           Linear-71                  [16, 128]          32,896
          MLPHead-72                  [16, 128]               0
================================================================
Total params: 11,331,136
Trainable params: 11,331,136
Non-trainable params: 0
----------------------------------------------------------------
Input size (MB): 16.00
Forward/backward pass size (MB): 5248.22
Params size (MB): 43.22
Estimated Total Size (MB): 5307.44
----------------------------------------------------------------


2020-09-22 12:13:15,264 | INFO | SimCLR Online preprocessing pipeline : 
…
