…
2020-02-26 03:31:31,077 | INFO | Autoencoder number of dataloader worker : 8

2020-02-26 03:31:31,369 | INFO | Autoencoder : AE_ResNet18
2020-02-26 03:31:31,369 | INFO | Encoder : ResNet18_Encoder
2020-02-26 03:31:31,370 | INFO | Embedding dimension : 256
2020-02-26 03:31:31,370 | INFO | Autoencoder pretrained on ImageNet : False
2020-02-26 03:31:31,370 | INFO | DeepSAD eta : 1.0
2020-02-26 03:31:31,402 | INFO | Autoencoder architecture:
----------------------------------------------------------------
        Layer (type)               Output Shape         Param #
================================================================
            Conv2d-1         [-1, 64, 256, 256]           9,408
       BatchNorm2d-2         [-1, 64, 256, 256]             128
              ReLU-3         [-1, 64, 256, 256]               0
         MaxPool2d-4         [-1, 64, 128, 128]               0
            Conv2d-5         [-1, 64, 128, 128]          36,864
       BatchNorm2d-6         [-1, 64, 128, 128]             128
              ReLU-7         [-1, 64, 128, 128]               0
            Conv2d-8         [-1, 64, 128, 128]          36,864
       BatchNorm2d-9         [-1, 64, 128, 128]             128
             ReLU-10         [-1, 64, 128, 128]               0
    ResidualBlock-11         [-1, 64, 128, 128]               0
           Conv2d-12         [-1, 64, 128, 128]          36,864
      BatchNorm2d-13         [-1, 64, 128, 128]             128
             ReLU-14         [-1, 64, 128, 128]               0
           Conv2d-15         [-1, 64, 128, 128]          36,864
      BatchNorm2d-16         [-1, 64, 128, 128]             128
             ReLU-17         [-1, 64, 128, 128]               0
    ResidualBlock-18         [-1, 64, 128, 128]               0
           Conv2d-19          [-1, 128, 64, 64]          73,728
      BatchNorm2d-20          [-1, 128, 64, 64]             256
             ReLU-21          [-1, 128, 64, 64]               0
           Conv2d-22          [-1, 128, 64, 64]         147,456
      BatchNorm2d-23          [-1, 128, 64, 64]             256
           Conv2d-24          [-1, 128, 64, 64]           8,192
      BatchNorm2d-25          [-1, 128, 64, 64]             256
             ReLU-26          [-1, 128, 64, 64]               0
    ResidualBlock-27          [-1, 128, 64, 64]               0
           Conv2d-28          [-1, 128, 64, 64]         147,456
      BatchNorm2d-29          [-1, 128, 64, 64]             256
             ReLU-30          [-1, 128, 64, 64]               0
           Conv2d-31          [-1, 128, 64, 64]         147,456
      BatchNorm2d-32          [-1, 128, 64, 64]             256
             ReLU-33          [-1, 128, 64, 64]               0
    ResidualBlock-34          [-1, 128, 64, 64]               0
           Conv2d-35          [-1, 256, 32, 32]         294,912
      BatchNorm2d-36          [-1, 256, 32, 32]             512
             ReLU-37          [-1, 256, 32, 32]               0
           Conv2d-38          [-1, 256, 32, 32]         589,824
      BatchNorm2d-39          [-1, 256, 32, 32]             512
           Conv2d-40          [-1, 256, 32, 32]          32,768
      BatchNorm2d-41          [-1, 256, 32, 32]             512
             ReLU-42          [-1, 256, 32, 32]               0
    ResidualBlock-43          [-1, 256, 32, 32]               0
           Conv2d-44          [-1, 256, 32, 32]         589,824
      BatchNorm2d-45          [-1, 256, 32, 32]             512
             ReLU-46          [-1, 256, 32, 32]               0
           Conv2d-47          [-1, 256, 32, 32]         589,824
      BatchNorm2d-48          [-1, 256, 32, 32]             512
             ReLU-49          [-1, 256, 32, 32]               0
    ResidualBlock-50          [-1, 256, 32, 32]               0
           Conv2d-51          [-1, 512, 16, 16]       1,179,648
      BatchNorm2d-52          [-1, 512, 16, 16]           1,024
             ReLU-53          [-1, 512, 16, 16]               0
           Conv2d-54          [-1, 512, 16, 16]       2,359,296
      BatchNorm2d-55          [-1, 512, 16, 16]           1,024
           Conv2d-56          [-1, 512, 16, 16]         131,072
      BatchNorm2d-57          [-1, 512, 16, 16]           1,024
             ReLU-58          [-1, 512, 16, 16]               0
    ResidualBlock-59          [-1, 512, 16, 16]               0
           Conv2d-60          [-1, 512, 16, 16]       2,359,296
      BatchNorm2d-61          [-1, 512, 16, 16]           1,024
             ReLU-62          [-1, 512, 16, 16]               0
           Conv2d-63          [-1, 512, 16, 16]       2,359,296
      BatchNorm2d-64          [-1, 512, 16, 16]           1,024
             ReLU-65          [-1, 512, 16, 16]               0
    ResidualBlock-66          [-1, 512, 16, 16]               0
AdaptiveAvgPool2d-67            [-1, 512, 1, 1]               0
           Linear-68                  [-1, 256]         131,072
 ResNet18_Encoder-69                  [-1, 256]               0
           Linear-70                  [-1, 512]         131,584
           Conv2d-71          [-1, 512, 16, 16]       2,359,296
      BatchNorm2d-72          [-1, 512, 16, 16]           1,024
             ReLU-73          [-1, 512, 16, 16]               0
           Conv2d-74          [-1, 512, 16, 16]       2,359,296
      BatchNorm2d-75          [-1, 512, 16, 16]           1,024
             ReLU-76          [-1, 512, 16, 16]               0
  UpResidualBlock-77          [-1, 512, 16, 16]               0
           Conv2d-78          [-1, 256, 16, 16]       1,179,648
      BatchNorm2d-79          [-1, 256, 16, 16]             512
             ReLU-80          [-1, 256, 16, 16]               0
         Upsample-81          [-1, 256, 32, 32]               0
           Conv2d-82          [-1, 256, 32, 32]          65,536
      BatchNorm2d-83          [-1, 256, 32, 32]             512
         Upsample-84          [-1, 512, 32, 32]               0
           Conv2d-85          [-1, 256, 32, 32]         131,072
      BatchNorm2d-86          [-1, 256, 32, 32]             512
             ReLU-87          [-1, 256, 32, 32]               0
  UpResidualBlock-88          [-1, 256, 32, 32]               0
           Conv2d-89          [-1, 256, 32, 32]         589,824
      BatchNorm2d-90          [-1, 256, 32, 32]             512
             ReLU-91          [-1, 256, 32, 32]               0
           Conv2d-92          [-1, 256, 32, 32]         589,824
      BatchNorm2d-93          [-1, 256, 32, 32]             512
             ReLU-94          [-1, 256, 32, 32]               0
  UpResidualBlock-95          [-1, 256, 32, 32]               0
           Conv2d-96          [-1, 128, 32, 32]         294,912
      BatchNorm2d-97          [-1, 128, 32, 32]             256
             ReLU-98          [-1, 128, 32, 32]               0
         Upsample-99          [-1, 128, 64, 64]               0
          Conv2d-100          [-1, 128, 64, 64]          16,384
     BatchNorm2d-101          [-1, 128, 64, 64]             256
        Upsample-102          [-1, 256, 64, 64]               0
          Conv2d-103          [-1, 128, 64, 64]          32,768
     BatchNorm2d-104          [-1, 128, 64, 64]             256
            ReLU-105          [-1, 128, 64, 64]               0
 UpResidualBlock-106          [-1, 128, 64, 64]               0
          Conv2d-107          [-1, 128, 64, 64]         147,456
     BatchNorm2d-108          [-1, 128, 64, 64]             256
            ReLU-109          [-1, 128, 64, 64]               0
          Conv2d-110          [-1, 128, 64, 64]         147,456
     BatchNorm2d-111          [-1, 128, 64, 64]             256
            ReLU-112          [-1, 128, 64, 64]               0
 UpResidualBlock-113          [-1, 128, 64, 64]               0
          Conv2d-114           [-1, 64, 64, 64]          73,728
     BatchNorm2d-115           [-1, 64, 64, 64]             128
            ReLU-116           [-1, 64, 64, 64]               0
        Upsample-117         [-1, 64, 128, 128]               0
          Conv2d-118         [-1, 64, 128, 128]           4,096
     BatchNorm2d-119         [-1, 64, 128, 128]             128
        Upsample-120        [-1, 128, 128, 128]               0
          Conv2d-121         [-1, 64, 128, 128]           8,192
     BatchNorm2d-122         [-1, 64, 128, 128]             128
            ReLU-123         [-1, 64, 128, 128]               0
 UpResidualBlock-124         [-1, 64, 128, 128]               0
          Conv2d-125         [-1, 64, 128, 128]          36,864
     BatchNorm2d-126         [-1, 64, 128, 128]             128
            ReLU-127         [-1, 64, 128, 128]               0
          Conv2d-128         [-1, 64, 128, 128]          36,864
     BatchNorm2d-129         [-1, 64, 128, 128]             128
            ReLU-130         [-1, 64, 128, 128]               0
 UpResidualBlock-131         [-1, 64, 128, 128]               0
          Conv2d-132         [-1, 64, 128, 128]          36,864
     BatchNorm2d-133         [-1, 64, 128, 128]             128
            ReLU-134         [-1, 64, 128, 128]               0
        Upsample-135         [-1, 64, 256, 256]               0
          Conv2d-136         [-1, 64, 256, 256]           4,096
     BatchNorm2d-137         [-1, 64, 256, 256]             128
        Upsample-138         [-1, 64, 256, 256]               0
          Conv2d-139         [-1, 64, 256, 256]           4,096
     BatchNorm2d-140         [-1, 64, 256, 256]             128
            ReLU-141         [-1, 64, 256, 256]               0
 UpResidualBlock-142         [-1, 64, 256, 256]               0
        Upsample-143         [-1, 64, 512, 512]               0
          Conv2d-144          [-1, 1, 512, 512]              64
            Tanh-145          [-1, 1, 512, 512]               0
ResNet18_Decoder-146          [-1, 1, 512, 512]               0
     AE_ResNet18-147          [-1, 1, 512, 512]               0
================================================================
Total params: 19,564,416
Trainable params: 19,564,416
Non-trainable params: 0
----------------------------------------------------------------
Input size (MB): 1.00
Forward/backward pass size (MB): 985.51
Params size (MB): 74.63
Estimated Total Size (MB): 1061.14
----------------------------------------------------------------


2020-02-26 03:31:31,402 | INFO | Pretraining DeepSAD via Autoencoder : True
…
