…
2020-04-02 11:56:32,038 | INFO | Set seed 01/02 to 1
2020-04-02 11:56:32,038 | INFO | Device : cuda
2020-04-02 11:56:32,038 | INFO | Number of thread : 0
2020-04-02 11:56:32,038 | INFO | Number of dataloader worker for DROCC : 8

2020-04-02 11:56:34,327 | INFO | Network : ResNet18_binary
2020-04-02 11:56:34,328 | INFO | ResNet18 pretrained on ImageNet : False
2020-04-02 11:56:34,585 | INFO | Network architecture: 
----------------------------------------------------------------
        Layer (type)               Output Shape         Param #
================================================================
            Conv2d-1         [16, 64, 256, 256]           9,408
       BatchNorm2d-2         [16, 64, 256, 256]               0
              ReLU-3         [16, 64, 256, 256]               0
         MaxPool2d-4         [16, 64, 128, 128]               0
            Conv2d-5         [16, 64, 128, 128]          36,864
       BatchNorm2d-6         [16, 64, 128, 128]               0
              ReLU-7         [16, 64, 128, 128]               0
            Conv2d-8         [16, 64, 128, 128]          36,864
       BatchNorm2d-9         [16, 64, 128, 128]               0
             ReLU-10         [16, 64, 128, 128]               0
     DownResBlock-11         [16, 64, 128, 128]               0
           Conv2d-12         [16, 64, 128, 128]          36,864
      BatchNorm2d-13         [16, 64, 128, 128]               0
             ReLU-14         [16, 64, 128, 128]               0
           Conv2d-15         [16, 64, 128, 128]          36,864
      BatchNorm2d-16         [16, 64, 128, 128]               0
             ReLU-17         [16, 64, 128, 128]               0
     DownResBlock-18         [16, 64, 128, 128]               0
           Conv2d-19          [16, 128, 64, 64]           8,192
      BatchNorm2d-20          [16, 128, 64, 64]               0
           Conv2d-21          [16, 128, 64, 64]          73,728
      BatchNorm2d-22          [16, 128, 64, 64]               0
             ReLU-23          [16, 128, 64, 64]               0
           Conv2d-24          [16, 128, 64, 64]         147,456
      BatchNorm2d-25          [16, 128, 64, 64]               0
             ReLU-26          [16, 128, 64, 64]               0
     DownResBlock-27          [16, 128, 64, 64]               0
           Conv2d-28          [16, 128, 64, 64]         147,456
      BatchNorm2d-29          [16, 128, 64, 64]               0
             ReLU-30          [16, 128, 64, 64]               0
           Conv2d-31          [16, 128, 64, 64]         147,456
      BatchNorm2d-32          [16, 128, 64, 64]               0
             ReLU-33          [16, 128, 64, 64]               0
     DownResBlock-34          [16, 128, 64, 64]               0
           Conv2d-35          [16, 256, 32, 32]          32,768
      BatchNorm2d-36          [16, 256, 32, 32]               0
           Conv2d-37          [16, 256, 32, 32]         294,912
      BatchNorm2d-38          [16, 256, 32, 32]               0
             ReLU-39          [16, 256, 32, 32]               0
           Conv2d-40          [16, 256, 32, 32]         589,824
      BatchNorm2d-41          [16, 256, 32, 32]               0
             ReLU-42          [16, 256, 32, 32]               0
     DownResBlock-43          [16, 256, 32, 32]               0
           Conv2d-44          [16, 256, 32, 32]         589,824
      BatchNorm2d-45          [16, 256, 32, 32]               0
             ReLU-46          [16, 256, 32, 32]               0
           Conv2d-47          [16, 256, 32, 32]         589,824
      BatchNorm2d-48          [16, 256, 32, 32]               0
             ReLU-49          [16, 256, 32, 32]               0
     DownResBlock-50          [16, 256, 32, 32]               0
           Conv2d-51          [16, 512, 16, 16]         131,072
      BatchNorm2d-52          [16, 512, 16, 16]               0
           Conv2d-53          [16, 512, 16, 16]       1,179,648
      BatchNorm2d-54          [16, 512, 16, 16]               0
             ReLU-55          [16, 512, 16, 16]               0
           Conv2d-56          [16, 512, 16, 16]       2,359,296
      BatchNorm2d-57          [16, 512, 16, 16]               0
             ReLU-58          [16, 512, 16, 16]               0
     DownResBlock-59          [16, 512, 16, 16]               0
           Conv2d-60          [16, 512, 16, 16]       2,359,296
      BatchNorm2d-61          [16, 512, 16, 16]               0
             ReLU-62          [16, 512, 16, 16]               0
           Conv2d-63          [16, 512, 16, 16]       2,359,296
      BatchNorm2d-64          [16, 512, 16, 16]               0
             ReLU-65          [16, 512, 16, 16]               0
     DownResBlock-66          [16, 512, 16, 16]               0
AdaptiveAvgPool2d-67            [16, 512, 1, 1]               0
           Linear-68                    [16, 1]             512
================================================================
Total params: 11,167,424
Trainable params: 11,167,424
Non-trainable params: 0
----------------------------------------------------------------
Input size (MB): 16.00
Forward/backward pass size (MB): 5248.06
Params size (MB): 42.60
Estimated Total Size (MB): 5306.66
----------------------------------------------------------------


2020-04-02 11:56:34,586 | INFO | DROCC radius r : 256.0
…
